{"nodes":[{"op":"null","name":"data","inputs":[]},{"op":"null","name":"convolution0_weight","attr":{"kernel":"(5, 5)","num_filter":"64"},"inputs":[]},{"op":"null","name":"convolution0_bias","attr":{"kernel":"(5, 5)","num_filter":"64"},"inputs":[]},{"op":"Convolution","name":"convolution0","attr":{"kernel":"(5, 5)","num_filter":"64"},"inputs":[[0,0,0],[1,0,0],[2,0,0]]},{"op":"Activation","name":"activation0","attr":{"act_type":"tanh"},"inputs":[[3,0,0]]},{"op":"Pooling","name":"pooling0","attr":{"kernel":"(2, 2)","pool_type":"max","stride":"(2, 2)"},"inputs":[[4,0,0]]},{"op":"null","name":"batchnorm0_gamma","inputs":[]},{"op":"null","name":"batchnorm0_beta","inputs":[]},{"op":"null","name":"batchnorm0_moving_mean","inputs":[]},{"op":"null","name":"batchnorm0_moving_var","inputs":[]},{"op":"BatchNorm","name":"batchnorm0","inputs":[[5,0,0],[6,0,0],[7,0,0],[8,0,1],[9,0,1]]},{"op":"QActivation","name":"qactivation0","attr":{"act_bit":"1","backward_only":"True"},"inputs":[[10,0,0]]},{"op":"null","name":"qconvolution0_weight","attr":{"act_bit":"1","kernel":"(5, 5)","num_filter":"64"},"inputs":[]},{"op":"QConvolution","name":"qconvolution0","attr":{"act_bit":"1","kernel":"(5, 5)","num_filter":"64","binarized_weights_only":"True"},"inputs":[[11,0,0],[12,0,0]]},{"op":"null","name":"batchnorm1_gamma","inputs":[]},{"op":"null","name":"batchnorm1_beta","inputs":[]},{"op":"null","name":"batchnorm1_moving_mean","inputs":[]},{"op":"null","name":"batchnorm1_moving_var","inputs":[]},{"op":"BatchNorm","name":"batchnorm1","inputs":[[13,0,0],[14,0,0],[15,0,0],[16,0,1],[17,0,1]]},{"op":"Pooling","name":"pooling1","attr":{"kernel":"(2, 2)","pool_type":"max","stride":"(2, 2)"},"inputs":[[18,0,0]]},{"op":"Flatten","name":"flatten0","inputs":[[19,0,0]]},{"op":"QActivation","name":"qactivation1","attr":{"act_bit":"1","backward_only":"True"},"inputs":[[20,0,0]]},{"op":"null","name":"qfullyconnected0_weight","attr":{"act_bit":"1","num_hidden":"1000"},"inputs":[]},{"op":"QFullyConnected","name":"qfullyconnected0","attr":{"act_bit":"1","num_hidden":"1000","binarized_weights_only":"True"},"inputs":[[21,0,0],[22,0,0]]},{"op":"null","name":"batchnorm2_gamma","inputs":[]},{"op":"null","name":"batchnorm2_beta","inputs":[]},{"op":"null","name":"batchnorm2_moving_mean","inputs":[]},{"op":"null","name":"batchnorm2_moving_var","inputs":[]},{"op":"BatchNorm","name":"batchnorm2","inputs":[[23,0,0],[24,0,0],[25,0,0],[26,0,1],[27,0,1]]},{"op":"Activation","name":"activation1","attr":{"act_type":"tanh"},"inputs":[[28,0,0]]},{"op":"null","name":"fullyconnected0_weight","attr":{"num_hidden":"10"},"inputs":[]},{"op":"null","name":"fullyconnected0_bias","attr":{"num_hidden":"10"},"inputs":[]},{"op":"FullyConnected","name":"fullyconnected0","attr":{"num_hidden":"10"},"inputs":[[29,0,0],[30,0,0],[31,0,0]]},{"op":"null","name":"softmax_label","inputs":[]},{"op":"SoftmaxOutput","name":"softmax","inputs":[[32,0,0],[33,0,0]]}],"arg_nodes":[0,1,2,6,7,8,9,12,14,15,16,17,22,24,25,26,27,30,31,33],"node_row_ptr":[0,1,2,3,4,5,6,7,8,9,10,13,14,15,16,17,18,19,20,23,24,25,26,27,28,29,30,31,32,35,36,37,38,39,40,41],"heads":[[34,0,0]],"attrs":{"mxnet_version":["int",903]}}